RemoteHealthCare+ Application/assets/proceedit_har_adam_tflite_model_2L_1D40_9856_9257.tflite (tflite, 46876 bytes, 5 tensors)

sequential_5/dense_15/BiasAdd/ReadVariableOp/resource f4 [128]
00000000: 1854 1bbc 802b e13b ca4e 9e3c 1e6a 4cbc
00000010: 877f 33bd 3d0c d1bc f0bf 7cbc 585c b7ba
00000020: 41d2 fe3c 4cb1 b93c ce8c 043c 80a2 873d
00000030: 1a42 5bbc 289d cbbc 76e7 523c 27f5 1b3d
00000040: cb26 513d 750a 0fbd c295 333d 7ef8 093d
00000050: 3105 a8bd 7fba 713c 570c 0dbe 163f 47bd
00000060: 1acc 24bc 8472 123c 5a0e 32bc 59d7 80bd
00000070: 5607 99be 6147 09bd 6611 8e3c 0770 2fbb
00000080: 44f9 af3c d3b6 4cbc 0cfc 25bb 72c4 e93a
00000090: d46d d43c 96e1 3fbb 9189 8d3b 1718 8abc
000000a0: 9ada 5cbd 8b10 463d 3f4f 42bd d854 b6bc
000000b0: b37f 24bd 740e 40bd c0e9 cb3b 20b2 70bc
000000c0: 506e e7bc fd8e 6ebc d3c2 403b 7b80 90bd
000000d0: 54b4 e4bb bdbe 09bc 7135 14bd 577d a2bc
000000e0: aee1 95bc df51 efbd 128b 2abd 022d 20bc
000000f0: 7a02 27be 9c92 d5bd 5b50 d1bc c3fc f63b
00000100: 7ed0 0cbd 9046 1dbd 85c5 09bd 27df 393c
00000110: a958 4dbe f557 7a3c 980f 70bb b65f 0bbd
00000120: 72cf c7bd 9235 45be bc81 49bc ce21 2a3d
00000130: 5ce1 67bc 438a 9b3c a880 72bd 3cae 0ebd
00000140: 6e25 1dba 33b5 a53b 0cee 32bd a82c 9dbc
00000150: 16f8 8ebc 7aed bb3c 42b6 c5bd a56f 59bd
00000160: bb66 3cbc df65 323d 6db0 063c 93e5 953c
00000170: 9157 563d f450 8d3b e0ca 6abd a43a 95bd
00000180: 89a4 36bd c735 5c3c afff 3c3c 3101 5abc
00000190: 748d 27bc f699 62bd 25ae 06bd 1fc4 06bb
000001a0: 83d0 8ebc 5543 743c 72d2 59bc 97da 89bd
000001b0: 9d12 a8bb b7b6 a3bc 94af 9c3c 9c61 163d
000001c0: 19c9 92bd 7c9b 3a3c f2e6 59bb 40ba 43bd
000001d0: c148 edbc b10b 743b ca10 9abb 5eb9 54bd
000001e0: b6f3 07be 3f36 c33c 09aa 413d e89d 263c
000001f0: d80a 6abc 13eb 7ebb 7816 cb3c b418 cdb9
-0.009480499 0.0068716407 0.019324679 -0.012476472 -0.04382279 -0.025518531 -0.015426621 -0.0013989313
0.031106116 0.02266755 0.008090211 0.06622791 -0.013382459 -0.024855211 0.012872567 0.038075592
0.051062386 -0.034922082 0.043843992 0.033684246 -0.08204115 0.014753937 -0.13774239 -0.048644148
-0.010058427 0.008938435 -0.0108676795 -0.06291074 -0.2988841 -0.033515338 0.01734228 -0.0026769654
0.021481164 -0.012494761 -0.0025327234 0.0017835035 0.025931276 -0.0029278747 0.0043193777 -0.01685719
-0.053919412 0.04835562 -0.047438856 -0.022257254 -0.040160846 -0.046888784 0.0062229335 -0.014690906
-0.028250843 -0.014560458 0.0029413 -0.07055756 -0.0069795046 -0.008407292 -0.03618378 -0.019835157
-0.018296089 -0.116855375 -0.041636534 -0.009776356 -0.16309538 -0.10428354 -0.025551012 0.0075374558
-0.03437852 -0.03839737 -0.033635635 0.011344708 -0.20053352 0.01527976 -0.0036630388 -0.034026824
-0.09756364 -0.19258717 -0.0122989975 0.041536145 -0.014152851 0.018986827 -0.059204727 -0.03483413
-0.0005994652 0.005057001 -0.04368405 -0.019186333 -0.017452281 0.022940386 -0.096539035 -0.05308499
-0.011499102 0.043554183 0.008220774 0.018297946 0.052329604 0.004312629 -0.057322383 -0.072865754
-0.044590507 0.013440556 0.011535569 -0.013305948 -0.010226596 -0.05532261 -0.03288092 -0.0020563675
-0.01743341 0.014908631 -0.013294803 -0.06731146 -0.005129172 -0.019984586 0.01912669 0.03671418
-0.071672626 0.011389609 -0.0033249226 -0.047785044 -0.028965356 0.0037238414 -0.0047017084 -0.051934592
-0.13276562 0.023829577 0.0472813 0.010169484 -0.014284812 -0.003889744 0.024790987 -0.00039119052

sequential_5/dense_16/BiasAdd/ReadVariableOp/resource f4 [64]
00000000: 51c6 103e 5563 1b3e 866f d4ba fcc5 0d3e
00000010: dae8 653c fa7e 1d3c ae2f 3e3c 6a6e d73d
00000020: c0ce 223e 2a3e 063e b557 e33d 1bb0 eb3d
00000030: c413 93bc 57a0 023e efa8 9f3d 7dec 143e
00000040: f9f6 853d 18f0 c539 6527 36bb f4c9 d13d
00000050: 08af d03d 447a 273e 07e5 b73d aa83 1d3e
00000060: a924 013e b0c5 1e3e 89c0 b73d 5fd7 cf3d
00000070: a44b 0a3e f9f0 61bb dbe1 e03d 160d ee3d
00000080: 741b 0c3c 7bbc d73d 630b f93d 5d3a 013e
00000090: 2b21 70bb 936d 903c b2f8 d03a 288e a13a
000000a0: 3681 873c a0e4 be3b 57dc 243d fa34 973c
000000b0: 7121 903d 49e8 ef3d 6bcd 0e3e d8a8 963d
000000c0: 0a9c b23b 6653 093e 4da4 903d 8a98 b63c
000000d0: 0881 d13a 8620 913d 18da 453d 1ace 133e
000000e0: 3dcd 9bbc 671d bd3d 64af d13a ccca 343c
000000f0: f146 353d cc34 263d 4c08 583c 5a6b 0f3e
0.14138152 0.15174611 -0.0016207553 0.13845056 0.014032567 0.009612793 0.011608047 0.10519107
0.15899181 0.13109651 0.11100713 0.11508199 -0.01795376 0.12756477 0.077958934 0.14543338
0.06541247 0.00037753652 -0.0027794477 0.102435976 0.101896346 0.16355234 0.089792304 0.15382257
0.12611641 0.155051 0.0897227 0.10148501 0.13505417 -0.0034475906 0.109805785 0.1162359
0.008551467 0.10533997 0.12160375 0.1261992 -0.0036640863 0.017630374 0.0015943258 0.0012325691
0.016541105 0.005825594 0.040249195 0.018457878 0.070376284 0.11714227 0.13945548 0.07356423
0.00545073 0.1341072 0.07062588 0.022289533 0.0015983889 0.070862815 0.048303694 0.1443409
-0.019018764 0.09234124 0.0015997705 0.011034679 0.044257108 0.040577695 0.013185572 0.14005795

sequential_5/dense_15/MatMul f4 [128, 22]
00000000: 3280 0abc 3282 043c 60c7 30bd 8a1e 3b3b
00000010: 5105 e2bc 7d06 49bd f03b dbbc 18a4 f43c
00000020: c416 aabc adff 563d 5506 cb3d 7c47 04bd
00000030: 500f 823d 6166 04bd 00e6 ce3c 05a0 c73b
00000040: c041 f53d 7f90 163d 7cf0 043d 8df6 973b
00000050: 4d05 c7bd c224 7abc 5b9a 8e3c 4d1e 283e
00000060: 5b09 7abc bbb5 253a fc6d 453d 2883 12bc
00000070: 8eee 25be 49a6 90ba 9e40 ee3d 7784 92bd
00000080: 74ed 8cbd d144 783d 46e8 d93d 63d4 9b3c
00000090: 8d81 973c a74e f93b 800d 6c3d 426a 3c3d
000000a0: 78f9 bebd 3f0b db3c 0a9a 063c c774 e23c
000000b0: 03b5 fabc 4845 dd3d 1012 f33d 2462 95bc
000000c0: 85b9 2d3e 4109 0dbd 1367 16bd 8733 083d
000000d0: a171 c63d 3125 b83d 9b1b f8bd 5669 ad3c
000000e0: cb20 e13b 7e53 21be 5788 f13d 0647 df3d
000000f0: 987c c93c 7b90 d5bc b106 97bd 3b19 90bb
00000100: 0dcb eb3d 93cd 21bd a277 9fbd c45c 773d
00000110: fd04 07bc 3e5d fcbb cda5 7bbd 0296 883d
00000120: 5f5b fabb b310 f1bc b0e4 e73d 0ac1 ab3b
00000130: 7341 d93b 16a0 0cbd c9f6 d4bd 5052 e63c
00000140: 4798 243d 5023 6bbd 04f4 b03c 996a 32bd
00000150: 8edc 86bd 8f29 0b3d a872 c4bc 3b0a 8a3d
00000160: f60e 0f3d ddd3 72bd af09 263d f57c 8b3d
00000170: 2644 a6bd c0d3 e9bc e66b 353e 0743 673c
00000180: 1e0d 323d 91d9 623d dbc8 323d f390 8cbd
00000190: d2e0 0abc 8385 0fbe f622 e93c b5db b53d
000001a0: f163 c23d 27e3 293d b237 bdbb 8bf6 62bd
000001b0: b543 c93d b325 f5bb ad99 96bc 4600 33bd
000001c0: c588 883d d72b 193d a099 4cba 9e2e 263e
000001d0: 35c8 6f3d ef45 5fbe ea46 94bd 1523 703e
000001e0: 4436 ba3c 7841 11bd f974 4b3d c18b dabd
000001f0: 1dce 2b3d 5b80 a43d a4e0 2ebd d4d3 503d
00000200: 2862 fb3b 4fd1 ac3d 0f41 253c 7cb4 763d
00000210: e732 9abd 2997 833d 89cf 713b 94d9 33bd
00000220: 8d22 06bd 335c 083d 88b8 393d 572a 3a3c
00000230: 8a1a 213c 15e6 73bc 6674 50bc 5e86 073d
00000240: 614f 2bbd 05b9 053b 5b2d 97bd 9cba baba
00000250: edba aebc 08f5 d43c 6127 c1bc 392a 57bd
00000260: 4b8f 0bbd 1139 b4bc 275b 8dbd 725f 4d3d
00000270: a020 7c3d 08f7 f23c eff7 56bc 55bc df3d
00000280: 49b9 eebc 701d 1f3d 2b75 03bc f53f 863c
00000290: 1d3b 98bd 12bc b3bb 3b25 cfbb 8f8b f13c
000002a0: c435 24bd fa48 773d 08af d73d 8b24 fa3d
000002b0: b0e1 bebd c72e d33d 7ea4 283c 88dc 023d
000002c0: 7c4a fcbd 4fa8 de3d a0fd 633c bc8c 0d3d
000002d0: 0a01 d43d 205f 473c 7aed a2bb 4aae 26bc
000002e0: b931 163d 6685 453c 5052 20bd 7965 71bb
000002f0: 974c 973c 07c7 093d 03d7 38ba 2e19 88ba
00000300: b438 443d 64d8 e7bc a91d fd3c 3f6c 373d
00000310: 5365 9abd 6ba1 cd3c 7697 13bd 774e 8a3d
00000320: 8856 593d a741 01be 4481 c83d d38e fb3b
00000330: e091 3bbd 026c 10be f936 873c 1d0e d83c
00000340: e869 d9bd c4c9 c0bb 29df c83c 74fa 2c3d
00000350: 2cfa b33d 45de 003e 18bb c4bd 307d 8d3c
00000360: ed1c a7bd 0bb2 0fbc bb4f b3bc fd1b ae3d
00000370: 8766 fb3c 6ebf d1bd 9efa e03d 56b9 a23d
00000380: 99fb 11bc 964d 243c 5039 833d f800 b5bd
00000390: d2e0 fb3d 2a85 073c 9562 f83a 49bf 22bd
000003a0: eb58 b0bd fa3d 533d 4795 2c3e 12f8 dd3d
000003b0: 91a9 873b e120 04bc 9e91 71bd e3ed 55bb
000003c0: 7aab 27bd ad49 903d f29a 193d d2ea f93c
000003d0: 821b 6e3d 52cc 873d 92e8 0a3d 7371 683d
000003e0: 5cad 0dbd 3376 42be fbf2 163e 6290 eb3d
000003f0: e23b 2abd dadd 93bc 8228 0b3d 1bac 06bd
-0.008453416 0.008087682 -0.04315889 0.0028552138 -0.027590426 -0.049078453 -0.026761979 0.029863402
-0.020762809 0.052489925 0.09913317 -0.032294735 0.06350577 -0.0323242 0.025256157 0.006092074
0.119754314 0.036758896 0.032455906 0.0046375454 -0.09717808 -0.015267553 0.017407587 0.16417809
-0.01526102 0.00063213304 0.048200592 -0.008942403 -0.16204283 -0.0011035885 0.116334185 -0.07154172
-0.06881228 0.060612503 0.10640006 0.019022172 0.018494392 0.007608253 0.057630062 0.045999773
-0.09324926 0.026738761 0.008215437 0.027643574 -0.030603891 0.1080423 0.118686795 -0.018235274
0.16965301 -0.034432653 -0.036719393 0.033252265 0.09689642 0.08991469 -0.1211464 0.021168392
0.0068703643 -0.15754506 0.11793583 0.109022185 0.024595544 -0.02606987 -0.07374323 -0.004397539
0.11513338 -0.03950269 -0.0778649 0.060391203 -0.008240935 -0.007701545 -0.061437417 0.06669237
-0.007640287 -0.029426908 0.113229156 0.005241518 0.0066301166 -0.034332357 -0.10398633 0.028115422
0.040184285 -0.057406723 0.02160073 -0.04355869 -0.06585036 0.03397518 -0.023980454 0.067402326
0.034926377 -0.05928408 0.04053658 0.06810943 -0.08118467 -0.028543353 0.17716941 0.014115102
0.04346954 0.05538327 0.043648582 -0.06863584 -0.008476453 -0.14015774 0.028459053 0.088797964
0.094917186 0.041476395 -0.0057744617 -0.055410903 0.09827367 -0.0074813007 -0.018383825 -0.043701433
0.06666712 0.037395325 -0.00078048743 0.1622872 0.05854054 -0.21804021 -0.07240088 0.23450883
0.022730954 -0.035462826 0.0496721 -0.10671187 0.04194461 0.08032294 -0.042694703 0.050983265
0.0076716132 0.0843836 0.010086312 0.060230717 -0.0752924 0.06425316 0.0036897382 -0.04390867
-0.032747794 0.033291053 0.045342 0.011362634 0.009832988 -0.014886399 -0.012723064 0.033087127
-0.04182375 0.002040447 -0.07381698 -0.0014246288 -0.021329368 0.025995746 -0.023578348 -0.0525305
-0.0340722 -0.021999868 -0.069021516 0.050139852 0.06155455 0.02965881 -0.013120635 0.10924593
-0.029141085 0.038846433 -0.0080235405 0.016387919 -0.0743315 -0.005485066 -0.006321577 0.029485492
-0.040090337 0.06037233 0.105314314 0.12214001 -0.0932039 0.103116564 0.010293124 0.031948596
-0.12318894 0.10871946 0.013915449 0.034558043 0.10351761 0.012168676 -0.004972157 -0.01017339
0.036668513 0.01205573 -0.039141 -0.0036834164 0.018469138 0.033637073 -0.0007051082 -0.0010383481
0.04790564 -0.028301425 0.030897932 0.044780966 -0.07538857 0.025101384 -0.036033116 0.06753247
0.05306104 -0.126227 0.097902805 0.007676938 -0.045793414 -0.14103702 0.016505705 0.026373917
-0.10615903 -0.0058834273 0.024520474 0.04223104 0.08787951 0.12584789 -0.09605998 0.017271608
-0.08159814 -0.008770476 -0.021888604 0.08501432 0.030688537 -0.102415904 0.109853014 0.07945506
-0.008910083 0.010028264 0.06407416 -0.088380754 0.122987404 0.008271495 0.0018950278 -0.039733205
-0.0861071 0.051572777 0.1685382 0.10838331 0.004140087 -0.00806448 -0.058976762 -0.0032643012
-0.040935017 0.070453025 0.037501283 0.030507479 0.058131702 0.06630768 0.033913203 0.05674882
-0.034589157 -0.18990402 0.14741127 0.11502148 -0.041561015 -0.018050123 0.033974178 -0.032878976

sequential_5/dense_16/MatMul f4 [64, 128]
00000000: 7586 20bd 1273 1e3d 61c7 9b3d f1c4 3abc
00000010: ab1f 813c 6a70 013e 5282 24bd f4f3 36bc
00000020: 839a 2abd 26f7 833d 70ec 5c3d ac4c 023e
00000030: 72f4 663d 6c79 083c da59 93bd b4c7 233d
00000040: efc6 883d 549d 093d b108 a9bc d1bc 7f3d
00000050: 550b 51bc 61cb 073e fa4b 24bd f692 2ebd
00000060: f656 823d f1d5 ef3d fe39 2a3c a09f 91bc
00000070: ba1f 81bd d92d 603d fb78 3fbd bd67 043d
00000080: 6243 a23d e7d7 143d c2ac 0b3e 60a9 913c
00000090: 6a23 493d ff26 103d ae07 4e3d 96af 393d
000000a0: 9951 3fbc bcf2 b73d d8a8 6a3d 0456 c0bb
000000b0: 3311 5e3d 6f44 d5bd 0258 80bd 2122 b0bd
000000c0: 9c18 893c bde3 913c d607 4d3d 19de 20bd
000000d0: c2e9 b6bc 6a72 73bd 43a0 2d3d 982a 8cbb
000000e0: 6324 bc3b 93d5 98bb 4378 b53d d2d4 a53d
000000f0: 5a8e 8fbc 40b8 43bd c916 a23c 33a2 0bbb
00000100: 6dfb 7a3c 04da bbbd 0302 d73d 00d2 193c
00000110: 55a4 89bd c728 113c f1fc 603c 4db7 18bd
00000120: 6a13 07bd 52d9 95bd 0ce0 d3bd 855e 603c
00000130: 1e7c 433d c8a0 e93d d4a2 653d d140 833d
00000140: aa5d 6b3d 7e48 fc3c 6ca8 b4bd d7a6 533d
00000150: 1b94 0a3d f49e 56bd dd17 79bd 0a0f f83c
00000160: 6cbc 053d 8627 ab3d 8d10 503b 4454 4abc
00000170: 9815 ad3d 5034 1dbd 2432 0d3d adc6 cf3c
00000180: a6cc 34bd a469 91bc 6fec 573d 2c46 38bc
00000190: 2fa5 a63d 5f77 373d e6ef aabd 2f23 c83d
000001a0: 286b 94bd d9c9 bb3c 9f04 abbc 693f ab3d
000001b0: cbf9 e13d 4076 8d3a f1ea 833c ea85 60bd
000001c0: 4501 06bd 5806 1fbd d382 893d 85df 8d3c
000001d0: 1318 f03d f59f e93c e01d f93d 5560 02bd
000001e0: e7b0 dcbd 2450 803d 522f e33c 851f 143c
000001f0: a477 9a3d 937b e63c 3507 513d dd0e 4f3d
00000200: e7bf 313d 2a21 ad3d c393 0b3e 27bb 133e
00000210: c9db 943d d0a2 253e 422f cdbc ed69 bb3c
00000220: 4379 1a3d 56f4 013d ff8b e33c fa9b 213e
00000230: 26ee c53d f958 44bb 22d4 85bd 2556 57bc
00000240: dd00 053e 804f 4ebd 31a4 c63b 7436 933d
00000250: 28a7 163c e5d6 33bd 5ea1 48bd ee7b 38bd
00000260: bc4a 313d 818f 973d 84a7 cd3c e2e4 93bd
00000270: 99d7 edbd 7c85 ae3d c3ef 36bd bcd3 863a
00000280: 797a 733d b615 e23d 433d 1e3e 4da7 4d3c
00000290: cec9 ef3a 13d4 57bd 80af e13d b143 a53d
000002a0: b9d1 acbd ec48 e33d 5313 823d 5104 b63d
000002b0: 3867 9d3d 1381 21bd 18b4 95bd e853 35bd
000002c0: 3185 3fbd 1296 873d c712 5c3d bdc5 d1bd
000002d0: 0019 4e3d 006a 45bb eefa ec3c ab08 2bbc
000002e0: 414d 903c 2e14 afbd e25e 0b3e d50e ca3d
000002f0: 0a60 2abd a5c2 82bd ac03 c33d 2cdc 9a3d
00000300: d015 5cbd f6f8 45bc e707 ab3d 68c8 be3b
00000310: 4537 a9bd 713d b83d 98c7 a43d bf8a 61bd
00000320: efff 46bd 75bb fdbd 8c46 813c 9197 9cbd
00000330: 1f77 233d 00bb 003d c087 113e 1c66 bf3d
00000340: 9b73 85bd 027d 133d 6013 9bbc e934 38bc
00000350: 70ae acbd 5cc7 29bd 8092 27bd a68b b83d
00000360: 699a c2bb 0d1d 1f3e 4229 e73b 787f cf3d
00000370: 7929 cc3d c644 8e3b c4e2 063c e6e4 9b3b
00000380: 997c 22bc c990 e03b 09d4 083c 407a 33bd
00000390: 87b8 6f3d 176c c13d 3691 54bd 8bfa ea3c
000003a0: 6d3e 5cbd df25 e339 bc5e 8dbc 3aba e83c
000003b0: 1b2a e73d f09e 6dbd e054 38bd f754 be3c
000003c0: a423 86bd 16e7 92bd 9529 db3d c766 2cbc
000003d0: dfcd ac3d 6fde 46ba d1d5 9b3d a3c1 26bd
000003e0: 1287 8c3a 4a0f a13c 7990 e83c 9a11 c63c
000003f0: 1300 803d 4eaf a73d c15e 5f3d f536 aebc
-0.03919073 0.03868396 0.07606388 -0.011399494 0.01576217 0.12640539 -0.040163346 -0.011166561
-0.04165126 0.06443624 0.053936422 0.1272456 0.056385465 0.0083297305 -0.07194872 0.039985374
0.066785686 0.033597305 -0.020634027 0.06243593 -0.012759049 0.13261177 -0.04011152 -0.04262062
0.06364243 0.11710728 0.010389803 -0.01777631 -0.063048795 0.054731224 -0.046746235 0.032325495
0.079230085 0.036338713 0.1364012 0.01778096 0.04910604 0.03519344 0.050300293 0.045333467
-0.011677169 0.08981845 0.05728993 -0.005869629 0.05421562 -0.10413443 -0.06266786 -0.086002596
0.016735367 0.01780879 0.0500563 -0.03927431 -0.022328261 -0.059435286 0.042389166 -0.0042775385
0.0057416423 -0.004664132 0.08860829 0.08097233 -0.017523933 -0.047783136 0.019786255 -0.0021306395
0.015318734 -0.091724426 0.104984306 0.009388447 -0.06720797 0.00885982 0.013732181 -0.037284184
-0.0329775 -0.07316841 -0.10345468 0.01369441 0.04772579 0.1140762 0.056063488 0.06408847
0.057462372 0.030796286 -0.088211864 0.051672783 0.03383265 -0.052397683 -0.060813773 0.030280609
0.032650396 0.08357148 0.0031748146 -0.012349192 0.08451384 -0.038379967 0.034471646 0.02536329
-0.04414048 -0.017750569 0.052715715 -0.011247199 0.08136975 0.044791576 -0.08346538 0.09772336
-0.07247001 0.022923397 -0.020876227 0.08361704 0.11033972 0.0010792688 0.01610324 -0.05481521
-0.032716054 -0.03882441 0.06714406 0.017318496 0.11723342 0.028518656 0.12163901 -0.03183015
-0.10775929 0.062652856 0.027732525 0.009040718 0.07542351 0.028135097 0.051032264 0.050551284
0.043395903 0.08453591 0.13630585 0.14426862 0.07268483 0.1617539 -0.025046948 0.022877658
0.0377133 0.031727158 0.027776716 0.15782157 0.09664564 -0.0029960258 -0.06534602 -0.013143097
0.1298861 -0.050368786 0.0060620536 0.071881205 0.009195127 -0.04390611 -0.048982017 -0.045040064
0.043284163 0.07400418 0.025104292 -0.0722139 -0.116133876 0.08521554 -0.04466225 0.001028649
0.05944297 0.11039297 0.15453057 0.012552095 0.0018294395 -0.052692484 0.11019802 0.08069552
-0.08438439 0.11097893 0.06351342 0.08887542 0.07685703 -0.039429735 -0.07309741 -0.044269472
-0.04675788 0.066204205 0.053728845 -0.10242794 0.05031681 -0.0030122995 0.028928246 -0.010439078
0.017614963 -0.08548771 0.13610414 0.0986611 -0.041595496 -0.06384782 0.09522185 0.07561526
-0.05373174 -0.012083283 0.083511166 0.00582223 -0.08262495 0.08996094 0.08045882 -0.05506396
-0.04858392 -0.1238927 0.01578071 -0.076460965 0.039908525 0.031428337 0.14211941 0.09345648
-0.065161906 0.03600789 -0.018930137 -0.0112430835 -0.08431709 -0.04144989 -0.040911198 0.09011011
-0.0059388173 0.15538426 0.007054479 0.101317346 0.09968848 0.0043416945 0.008232776 0.0047575114
-0.009917402 0.0068531972 0.008351334 -0.04381776 0.05852559 0.094444446 -0.051896296 0.028683921
-0.05377047 0.0004332503 -0.017257087 0.028409112 0.11287328 -0.058012903 -0.045002818 0.023233874
-0.06549767 -0.071729824 0.107012905 -0.010522551 0.08437704 -0.0007586246 0.076091416 -0.04071201
0.0010721406 0.01966061 0.028389202 0.024178315 0.06250014 0.081877336 0.054533724 -0.02126644

sequential_5/dense_17/MatMul f4 [1, 64]
00000000: 1227 0d3f 61aa 383f 9033 dcbd 63f3 0abf
00000010: 467f 833e 2404 14be e795 30be f004 d23e
00000020: 55e1 243f 9d43 30bf a3ea e0be 5804 173f
00000030: 2729 2e3d e72a ea3e 84cb b13e 8bec 253f
00000040: d1e6 cc3e fbf8 23bd 9ec0 673c d6d0 f83e
00000050: 6bf3 13bf 9af4 303f dc5b a73e 3599 26bf
00000060: de01 1ebf 2e20 1b3f da0e 0cbf 8da8 fabe
00000070: b9bb 37bf cb08 dc3d 9685 df3e 9505 d0be
00000080: 5c2c b6bd 45c1 e1be 6886 fcbe 0072 ee3e
00000090: e935 5abd acc0 eb3d 0a7d f1bc e205 fb3c
000000a0: 40d5 813e 64d1 4f3d 5360 80be 3196 e73d
000000b0: f456 bb3e 5650 f73e e852 2f3f cfd6 a0be
000000c0: 27ba 63bd 405f 193f 86e9 a4be 1246 243e
000000d0: 47c5 a83c 557a af3e 9c28 86be cfd4 25bf
000000e0: 695b e43d 2360 bebe d322 1abd 724d 493e
000000f0: 3ae7 b93e 6574 543e 4765 9ebd 6bfa be3e
0.5513774 0.7213498 -0.10752022 -0.5427763 0.2568304 -0.14454705 -0.17244683 0.41019392
0.6440633 -0.6885317 -0.43929014 0.58991003 0.042519715 0.45735857 0.34725583 0.6481406
0.4001985 -0.04003237 0.014145045 0.4859683 -0.577933 0.6912323 0.3268727 -0.65077525
-0.617216 0.6059598 -0.5471016 -0.4895672 -0.7177082 0.107438646 0.43656605 -0.4062926
-0.0889518 -0.44092765 -0.49321294 0.4657135 -0.05327407 0.115113586 -0.029478569 0.030642454
0.2535801 0.0507368 -0.2507349 0.113079436 0.36589777 0.4830348 0.6848588 -0.31413886
-0.05559745 0.59910965 -0.32209414 0.16042355 0.020601882 0.3427302 -0.26202857 -0.64777845
0.111502476 -0.37182721 -0.037630867 0.1965845 0.36309224 0.20747526 -0.07734161 0.3730043
